PartialDifferentialEquations/weights_matrix.npy (npy, 3656 bytes, 1 tensors)

array f8 [441]
000000 0c c5 03 b2 93 cb 6c 40 5f 9a e1 d7 7e a4 6b c0
       230.3617792199733 -221.14048379958237
000010 ce bc 5e 89 c5 b7 33 40 da 8a 03 61 77 83 6b c0
       19.717857919339444 -220.10832262699006
000020 70 51 4b 06 d4 13 5b 40 a1 ea 04 24 6f 6e 72 c0
       108.30981595378194 -294.90213395996585
000030 09 f5 28 12 df cd 7d 40 34 20 4c 70 73 97 50 c0
       476.86696067809004 -66.36642081674728
000040 38 d7 4a 92 df fa 59 40 7f 06 cc 40 67 61 26 c0
       103.91989571865713 -11.190240883737031
000050 3a a2 2a 4c fc 5d 22 c0 4a a3 dd 23 56 5e 49 c0
       -9.183565502361592 -50.73700378725205
000060 c0 0e f4 29 b7 dd 48 c0 2b 88 19 ac 15 71 48 c0
       -49.73215221802593 -48.88347388502765
000070 eb 2b 3b 85 ef 30 3d c0 a4 2c 27 2b 8a f4 23 c0
       -29.191154791780644 -9.977616642505673
000080 14 d1 60 88 b4 98 25 40 88 7f 6f 30 1c 76 32 40
       10.798252355402418 18.46136763307689
000090 b8 3f 2b 0c fb 36 39 40 a0 fa cb f9 dc 4a 14 40
       25.214768181380094 5.0731085806607155
0000a0 00 9a 68 2e f1 d0 fa 3f b5 48 3f 7a 25 85 70 c0
       1.6760112583957607 -264.3216497871429
0000b0 e2 05 94 47 3c c1 32 40 70 00 61 4a aa f4 54 40
       18.754826043737815 83.82289370987723
0000c0 21 90 27 a9 ed bc 56 c0 cc 0a 6d a6 be ac 36 40
       -90.95200566161704 22.674784089681268
0000d0 a6 6e 1e 99 b2 5d 69 40 df 8b 63 db cd cc 4e c0
       202.92805152839463 -61.60003225670493
0000e0 7c fa fe ae 35 fc 6f c0 0b d5 9c e3 c4 9d 4d 40
       -255.8815531711624 59.23257107885191
0000f0 93 fa 19 78 09 a9 63 40 2c d8 66 4d a6 80 f5 bf
       157.28240590166078 -1.3439085982804597
000100 75 37 7b e8 00 06 1a 40 e2 71 9a e0 d6 3f 5f c0
       6.505862839241549 -124.9974900730372
000110 c5 1c 5b bd 39 f3 58 c0 bc bf f3 d7 53 ca 6c 40
       -99.80039914987272 230.32273480994434
000120 f5 7f 0f c8 31 5c 60 40 8f ab 8f 65 b8 eb 67 c0
       130.88107684161483 -191.3662593656595
000130 6b 32 3b ec 94 f6 60 c0 12 21 58 4f a8 a4 47 40
       -135.70567905008224 47.28638641169722
000140 88 0b 5b a5 3c bf 56 40 6d ca b2 bf 66 16 4f 40
       90.98807653323286 62.175010645198974
000150 ff c5 1b 42 d2 1d 42 40 16 77 27 77 10 bb 5d c0
       36.23297907215237 -118.92287997106573
000160 9d 1c a4 53 b2 19 67 c0 a7 47 53 5a 06 11 63 40
       -184.80301839879112 152.53202549234013
000170 1c e5 72 18 eb 0e 6a 40 b9 5b cd d3 7c f1 61 c0
       208.46619818153783 -143.5464877139
000180 69 4f a8 c8 69 df 58 c0 1a 03 c7 f0 45 ae 43 40
       -99.49083153187316 39.361509415792355
000190 b8 a4 64 79 b7 a5 2d c0 6a b4 55 38 2a 58 60 40
       -14.823665421996665 130.75515381564338
0001a0 6e ab 81 fd 38 7f 57 40 b1 e2 3e 9a 0f ce 6a c0
       93.98785340941478 -214.43940460474326
0001b0 5d d8 75 fc 6c 7f 64 c0 2c 35 78 89 74 c4 63 40
       -163.9820539762176 158.13922570684497
0001c0 15 85 4d 9b 09 fb 6a 40 36 cc e7 cb 89 11 52 c0
       215.844922686964 -72.27403543125624
0001d0 13 c5 74 d5 35 10 68 c0 9d cf ef a9 f4 75 35 40
       -192.50657151037794 21.460764523551564
0001e0 6c fa 5c b2 21 c3 54 40 f4 1e c7 68 32 8a 6d 40
       83.04893168525604 236.31865347758105
0001f0 74 fe ff 97 fd 1b 4e 40 b1 3f 88 50 b7 15 69 40
       60.21867656707482 200.6786272679433
000200 07 21 ff 07 7e 18 4c c0 73 ea 72 da 88 31 5b 40
       -56.19134616811248 108.77397786352394
000210 08 fa 88 5e 01 c2 81 c0 61 3b 86 fb 32 d3 62 c0
       -568.2506685925773 -150.5999734517782
000220 98 7b a1 a7 ac 40 60 c0 36 ce 93 85 df dc 23 40
       -130.02107602634055 9.931392835896172
000230 9e 05 cb 88 e0 87 58 40 52 18 4d 10 fc b9 64 40
       98.12307948900568 165.81201949174516
000240 c4 f4 f8 d3 43 e3 65 40 57 43 f3 72 bf dd 61 40
       175.10202978729478 142.92962024223627
000250 b4 43 c7 be 56 df 52 40 c0 f9 5d fc d0 a4 cb 3f
       75.48966950854702 0.21596729586231156
000260 d9 5f 56 8a 1b 34 50 c0 60 60 8a 50 fa 72 57 c0
       -64.8141809314251 -93.79652799142195
000270 bf 86 37 ab ad cf 57 c0 83 19 72 3f 95 69 46 c0
       -95.24497490332122 -44.82486718245766
000280 e7 6c af b1 d5 39 4f c0 d5 7f 17 1f f9 97 33 c0
       -62.45183392587369 -19.593645041691918
000290 f4 f9 f0 b4 f1 9d 1b c0 87 0d 42 e0 ed 33 62 40
       -6.904242350776702 145.62278759861894
0002a0 9a 14 d9 98 e7 41 61 40 0d 1c 4d e6 27 67 7f 40
       138.05952112577944 502.4472411167233
0002b0 ad cd 6e 76 ad 35 6c 40 54 85 c4 dd db cf 50 40
       225.67742463723462 67.247794572749
0002c0 cd a6 ce bb 43 39 5d c0 16 94 2e ca 6d c6 6f c0
       -116.89475913220231 -254.2009020719276
0002d0 48 b6 f6 ff 59 21 74 c0 2a 56 f2 37 cd b4 72 c0
       -322.08447262164964 -299.3001021829865
0002e0 44 da 64 65 fe 1d 69 c0 2e 02 26 33 fa fb 4a c0
       -200.93730420778058 -53.96857299190411
0002f0 cb e5 c3 cb c4 37 58 40 81 d8 70 fe e4 7a 6a 40
       96.87138647204044 211.8404533580797
000300 ab 55 8d e4 cc 0e 70 40 e4 b4 8b d3 ab b6 6b 40
       256.9250226517567 221.7084748963017
000310 15 26 7d 36 31 6e 61 40 c6 4f 1b 4c 5e e1 45 c0
       139.44350742762677 -43.76069022496772
000320 ed b5 b3 7d 84 0b 55 c0 d5 99 a5 c6 94 15 62 c0
       -84.17996161031597 -144.67441112846305
000330 bd 06 2e 25 28 34 6d c0 86 c9 0b f8 bb 89 6d c0
       -233.62990054120556 -236.3041954260081
000340 b3 ab 32 1c 10 af 76 c0 9a 0f bc fb 0e 25 61 c0
       -362.9414331416439 -137.1580790207925
000350 34 d1 a9 82 5c 19 52 40 10 13 77 bc 7a b7 70 40
       72.39627138694487 267.4674648906084
000360 85 09 d5 c6 af c9 78 40 d9 de 2e f6 9f 99 7a 40
       396.605414230515 425.60155313786305
000370 9b fc 59 8d db 64 75 40 f8 f9 c6 b8 ec 08 65 40
       342.30360160018034 168.2788967024096
000380 3b 73 4c fc 92 8c 4a c0 c3 d7 a4 6d c9 8a 70 c0
       -53.09823564274708 -264.67417683021284
000390 14 a7 c9 4f 17 7a 79 c0 64 d7 57 ee b6 7b 7c c0
       -407.63069132586065 -455.7321608954719
0003a0 a3 9b 7d 40 ab 26 76 c0 35 ca 28 e6 32 9f 70 c0
       -354.41680954995735 -265.9499265282969
0003b0 dc f3 a9 06 5c f0 54 40 d2 1d 3e c7 83 c9 5d 40
       83.75561682316714 119.14866810861648
0003c0 3e c4 43 e5 19 80 67 40 99 d4 d0 dd 0e 82 6d 40
       188.0031610797468 236.064314754364
0003d0 02 80 2f 9f 30 69 6c 40 4e 8b 87 40 39 b6 6d 40
       227.28718528058386 237.6944887778613
0003e0 93 31 a6 a2 0b e6 4a 40 65 f6 70 52 6b c7 61 c0
       53.79723008265423 -142.23185083449349
0003f0 fe a9 c8 fc 96 7e 73 c0 83 30 eb af d1 c9 79 c0
       -311.9118621672095 -412.61369315977953
000400 32 ce b7 9a 53 c3 79 c0 4c 32 79 ea 8e fb 72 c0
       -412.2079112224484 -303.7223915800321
000410 51 cf 6f 34 3f 6a 5b c0 20 21 76 62 80 dc 5e 40
       -109.66010771674088 123.44533597503732
000420 86 03 44 57 ca 46 75 40 ae 73 72 65 3d ca 7d 40
       340.42439962928654 476.6399893255974
000430 33 0c f6 ce f7 47 80 40 f7 94 7b 84 a5 02 78 40
       520.9960002157662 384.1654095485132
000440 f9 9a 35 29 bd dd 73 40 89 49 be 14 f3 c6 50 c0
       317.8586818784675 -67.10858648855914
000450 b3 4a be e2 c0 66 53 c0 42 50 a3 71 13 f7 60 c0
       -77.60552280982192 -135.7211235227315
000460 b3 7b 49 ce 9b 77 65 c0 79 52 10 50 e1 92 66 c0
       -171.73776926376522 -180.59000399768755
000470 1d bb 5b 3f 99 76 66 c0 8a 6d 00 1b c7 34 51 c0
       -179.7062069694156 -68.82465243379389
000480 0d ad 41 f9 e2 a1 50 40 37 2f b9 6b 20 ef 67 40
       66.52947837270422 191.4727076165088
000490 db 61 11 2a 6d 32 71 40 38 c9 b4 ca 7d 36 72 40
       275.1516514472002 291.4057108938173
0004a0 c9 7f 28 4f 9f ec 6c 40 48 ca e1 e1 56 d3 5a 40
       231.39444692525856 107.30217787790127
0004b0 f7 a0 65 41 ea 33 49 c0 ed be ed 30 83 49 69 c0
       -50.405586409209654 -202.29726454195716
0004c0 15 81 5b 26 b9 fe 72 c0 33 41 e7 ce 88 38 75 c0
       -303.92020259612883 -339.5334004434
0004d0 ea 79 92 18 57 39 70 c0 3c be ac b1 7f 5d 69 c0
       -259.58376366822506 -202.9218376516236
0004e0 88 f9 5b 6d bf f0 2c c0 61 07 2f c8 d6 71 48 c0
       -14.470210473515877 -48.88936712547616
0004f0 08 45 3d 40 6a 0e 3b c0 ab fa 2a 04 db b2 21 40
       -27.056308760603343 8.849327211615067
000500 61 50 ee 04 64 e3 4e 40 43 b6 78 b2 6a 90 5d 40
       61.77648984562325 118.25651227749135
000510 1c 06 5b 2d e7 73 5d 40 f6 a0 b1 ff 73 26 55 40
       117.81098493470239 84.60083000513609
000520 10 a5 42 a2 6e ed 3e 40 5b 08 53 d6 86 1e 3e c0
       30.927469388266275 -30.1192449524609
000530 2a 64 36 7b d7 2c 54 c0 65 8a 4c 90 7a b6 5a c0
       -80.7006519347348 -106.85123069262188
000540 1e 04 81 4a d7 d8 59 c0 9e 8d da a3 09 64 52 c0
       -103.3881403217242 -73.56308838217817
000550 a7 a1 1e ef c9 f6 3e c0 7c e9 71 b3 02 06 2a 40
       -30.964018769243605 13.011739356665878
000560 aa ff 2e f5 16 78 41 40 c8 e9 6d dc 9d 05 49 40
       34.93820061488016 50.04388003699165
000570 32 b2 81 ba 46 64 26 40 0e 23 a5 82 fd 6f 64 40
       11.195852115947762 163.49969608548457
000580 8c dd 7b 92 c5 9a 6b 40 12 da 20 7c 39 54 71 40
       220.83661770050492 277.26403439362286
000590 8c dd ec ca 60 31 6e 40 a6 97 4a fe f0 82 62 40
       241.54306551230218 148.0919181305773
0005a0 a0 7b 70 bc 32 ac 29 40 3c da 96 1c b7 a2 5a c0
       12.836324585657906 -106.54242624980628
0005b0 77 4c 12 6b 2a 49 68 c0 3c aa bf 2c ef 61 6d c0
       -194.2864280087849 -235.0604461425263
0005c0 35 0a ea 89 35 c6 6b c0 59 44 e9 66 32 5d 64 c0
       -222.1940354891864 -162.91240258750875
0005d0 04 1c 1d 2a 92 6c 52 c0 5e 22 22 ce 97 ce 38 40
       -73.6964211735031 24.80700386365276
0005e0 11 3d f0 de 9a 05 5c 40 72 6a f5 76 a5 af 65 40
       112.08757756672664 173.48894832546972
0005f0 f7 3c 4d e0 86 9f 68 40 92 44 2d 2f d0 d6 67 40
       196.9852143772657 190.71291312066438
000600 1b d6 ad 80 6f 0b 60 40 2d b8 8a df a9 fc 5b 40
       128.35736116363918 111.94786823794193
000610 b4 f1 1d 4c 10 71 71 c0 5e b2 43 ee a1 93 74 c0
       -279.0664788407987 -329.22703386730234
000620 9f 07 ee fc 8d 53 7c c0 c3 2f b9 76 a5 40 7a c0
       -453.2221650407827 -420.04039642656807
000630 04 f2 2c a0 c3 77 73 c0 1a b8 80 70 67 61 60 c0
       -311.4852601772002 -131.0438768877073
000640 8c 44 41 dc 80 88 4d 40 87 e8 f0 95 f6 06 6c 40
       59.06643250643637 224.21760079433827
000650 30 84 43 1e 91 b0 74 40 a3 14 bf bc 25 84 76 40
       331.0354292523725 360.25921320572724
000660 b7 35 3b 4e 5c 6e 73 40 63 07 ac f4 09 dd 68 40
       310.89753554467046 198.9074653015078
000670 af 8d fe 72 5c 0d 4a 40 8d fc c9 01 87 1b 58 c0
       52.1043838255822 -96.43011517262694
000680 ce 76 45 c5 9f fd 6a c0 23 86 42 6c 4d 98 71 c0
       -215.9257532459946 -281.5189020727723
000690 e0 70 8e c7 7c 0d 72 c0 33 5c ae 30 e2 ae 6a c0
       -288.84296374932273 -213.4651111035797
0006a0 59 b8 b2 03 d0 34 64 c0 cf 19 59 83 95 61 6d 40
       -161.65039238840362 235.04950110819343
0006b0 06 40 c1 bb 7d c4 71 40 0d 18 ff d1 95 36 78 40
       284.28069663513486 387.41157722135614
0006c0 c9 57 27 c2 32 71 76 40 b2 73 0d 96 f5 72 70 40
       359.07489219063115 263.1849575543848
0006d0 c9 57 ef 4b 5c 7d 5a 40 b0 3f b3 56 bf c6 4f c0
       105.95875833867389 -63.552714192889994
0006e0 66 24 fb 1e 35 68 6a c0 0e a3 20 fe ec 21 73 c0
       -211.256484499466 -306.1203595423584
0006f0 2c a3 2a 59 6b a2 74 c0 2a 14 77 e0 f6 9b 71 c0
       -330.1512080827258 -281.74777266039985
000700 6f 14 d3 7c df e3 65 c0 d8 ad 0d c8 1f e9 41 c0
       -175.12103120066192 -35.8212823931496
000710 89 6c 1c af a4 3c 5a 40 36 97 ef 28 31 4d 6b 40
       104.94755151534822 218.41225096507122
000720 13 90 cb 20 64 74 71 40 fe 8c 9e b1 2c e4 71 40
       279.2744453384086 286.2609115785016
000730 ba 1c 1b 6f 89 f4 69 40 d4 db 1e 16 68 89 64 40
       207.6417766122375 164.2939558603963
000740 e8 69 30 8f aa 93 51 c0 03 f7 c2 c8 bc e5 5c c0
       -70.30728511550808 -115.58964747466602
000750 25 83 94 be 8c bd 60 c0 12 73 0e 1d a9 f2 5c c0
       -133.92343071943574 -115.79157186900218
000760 63 70 14 e4 b0 b7 4e c0 5a 61 d7 cd d4 0d 26 40
       -61.435085782985674 11.027014191190279
000770 48 f2 8a d9 2e a0 54 40 d5 4d 8e 0f b6 ea 60 40
       82.5028594834231 135.3347242144943
000780 29 59 e5 f3 e3 c8 63 40 39 1d 90 cf b4 47 62 40
       158.2778262595614 146.24082162997527
000790 92 76 24 c0 b7 ab 59 40 b3 f4 71 22 1b e0 42 40
       102.6830902439199 37.75082808079005
0007a0 90 1b 9e 39 0a 62 41 c0 8d 54 ba 5e 57 f1 58 c0
       -34.765937044335374 -99.77095764347378
0007b0 0b 17 81 6e ae 55 62 c0 2a d9 de 0a f3 69 64 c0
       -146.6775429269113 -163.31091826939638
0007c0 ad a2 70 c9 ae fa 63 c0 43 a9 c6 14 c9 cc 59 c0
       -159.83383628844368 -103.19977301979547
0007d0 14 f5 38 51 f0 e9 58 c0 23 5b ea cd 73 10 51 c0
       -99.65529280245056 -68.2570681370385
0007e0 7a f0 07 98 6a 1d 52 c0 bf 81 11 00 00 f5 5b c0
       -72.45963097358063 -111.8281250163045
0007f0 f8 f7 2f 16 09 0a 5d c0 a9 18 af 91 cd 5f 5a c0
       -116.15680460628926 -105.49692194079638
